…
ata":{"colab":{"base_uri":"https://localhost:8080/"},"executionInfo":{"elapsed":35,"status":"ok","timestamp":1659295633445,"user":{"displayName":"And rew","userId":"05916487664191867884"},"user_tz":-420},"id":"CuSlGyTyqmCx","outputId":"bd33f045-03de-4a3f-8a75-b40ef363d520"},"outputs":[{"name":"stdout","output_type":"stream","text":["Model: \"sequential\"\n","_________________________________________________________________\n"," Layer (type)                Output Shape              Param #   \n","=================================================================\n"," embedding (Embedding)       (None, 200, 64)           640064    \n","                                                                 \n"," flatten (Flatten)           (None, 12800)             0         \n","                                                                 \n"," dense (Dense)               (None, 64)                819264    \n","                                                                 \n"," dropout (Dropout)           (None, 64)                0         \n","                                                                 \n"," dense_1 (Dense)             (None, 64)                4160      \n","                                                                 \n"," dropout_1 (Dropout)         (None, 64)                0         \n","                                                                 \n"," dense_2 (Dense)             (None, 64)                4160      \n","                                                                 \n"," dropout_2 (Dropout)         (None, 64)                0         \n","                                                                 \n"," dense_3 (Dense)             (None, 7)                 455       \n","                                                                 \n","=================================================================\n","Total params: 1,468,103\n","Trainable params: 1,468,103\n","Non-trainable params: 0\n","_________________________________________________________________\n"]}],"source":["model = tf.keras.Sequential([tf.keras.layers.Embedding(input_dim = vocab_size
…
ata":{"colab":{"base_uri":"https://localhost:8080/"},"executionInfo":{"elapsed":27,"status":"ok","timestamp":1659295745818,"user":{"displayName":"And rew","userId":"05916487664191867884"},"user_tz":-420},"id":"zn5Hr0e3B0qb","outputId":"225305a4-c9cc-44b1-f728-71f71bd5ab4f"},"outputs":[{"name":"stdout","output_type":"stream","text":["Model: \"sequential\"\n","_________________________________________________________________\n"," Layer (type)                Output Shape              Param #   \n","=================================================================\n"," embedding (Embedding)       (None, 200, 64)           640064    \n","                                                                 \n"," conv1d (Conv1D)             (None, 196, 64)           20544     \n","                                                                 \n"," dropout (Dropout)           (None, 196, 64)           0         \n","                                                                 \n"," conv1d_1 (Conv1D)           (None, 192, 64)           20544     \n","                                                                 \n"," dropout_1 (Dropout)         (None, 192, 64)           0         \n","                                                                 \n"," conv1d_2 (Conv1D)           (None, 188, 64)           20544     \n","                                                                 \n"," dropout_2 (Dropout)         (None, 188, 64)           0         \n","                                                                 \n"," global_max_pooling1d (Globa  (None, 64)               0         \n"," lMaxPooling1D)                                                  \n","                                                                 \n"," dense (Dense)               (None, 7)                 455       \n","                                                                 \n","=================================================================\n","Total params: 702,151\n","Trainable params: 702,151\n","Non-trainable params: 0\n","_________________________________________________________________\n"]}],"source":["model = tf.keras.Sequential([tf.keras.layers.Embedding(vocab_size + 1, embedding_
…
ta":{"colab":{"base_uri":"https://localhost:8080/"},"executionInfo":{"elapsed":760,"status":"ok","timestamp":1659296911187,"user":{"displayName":"And rew","userId":"05916487664191867884"},"user_tz":-420},"id":"4hvKl1dEFdes","outputId":"7a66cdb8-2d91-4a43-b660-bcb8d8a39121"},"outputs":[{"name":"stdout","output_type":"stream","text":["Model: \"sequential\"\n","_________________________________________________________________\n"," Layer (type)                Output Shape              Param #   \n","=================================================================\n"," embedding (Embedding)       (None, 200, 64)           640064    \n","                                                                 \n"," bidirectional (Bidirectiona  (None, 200, 128)         66048     \n"," l)                                                              \n","                                                                 \n"," dropout (Dropout)           (None, 200, 128)          0         \n","                                                                 \n"," bidirectional_1 (Bidirectio  (None, 200, 128)         98816     \n"," nal)                                                            \n","                                                                 \n"," dropout_1 (Dropout)         (None, 200, 128)          0         \n","                                                                 \n"," bidirectional_2 (Bidirectio  (None, 128)              98816     \n"," nal)                                                            \n","                                                                 \n"," dropout_2 (Dropout)         (None, 128)               0         \n","                                                                 \n"," dense (Dense)               (None, 7)                 903       \n","                                                                 \n","=================================================================\n","Total params: 904,647\n","Trainable params: 904,647\n","Non-trainable params: 0\n","_________________________________________________________________\n"]}],"source":["model = tf.keras.Sequential([tf.keras.layers.Embedding(vocab_size + 1, embedding_
…
a":{"colab":{"base_uri":"https://localhost:8080/"},"executionInfo":{"elapsed":1934,"status":"ok","timestamp":1659376885821,"user":{"displayName":"And rew","userId":"05916487664191867884"},"user_tz":-420},"id":"YTDDmLGyFebF","outputId":"6262bed7-ff8d-4695-9bec-74c617d94026"},"outputs":[{"output_type":"stream","name":"stdout","text":["Model: \"sequential\"\n","_________________________________________________________________\n"," Layer (type)                Output Shape              Param #   \n","=================================================================\n"," embedding (Embedding)       (None, 200, 64)           640064    \n","                                                                 \n"," bidirectional (Bidirectiona  (None, 200, 128)         49920     \n"," l)                                                              \n","                                                                 \n"," dropout (Dropout)           (None, 200, 128)          0         \n","                                                                 \n"," bidirectional_1 (Bidirectio  (None, 200, 128)         74496     \n"," nal)                                                            \n","                                                                 \n"," dropout_1 (Dropout)         (None, 200, 128)          0         \n","                                                                 \n"," bidirectional_2 (Bidirectio  (None, 128)              74496     \n"," nal)                                                            \n","                                                                 \n"," dropout_2 (Dropout)         (None, 128)               0         \n","                                                                 \n"," dense (Dense)               (None, 7)                 903       \n","                                                                 \n","=================================================================\n","Total params: 839,879\n","Trainable params: 839,879\n","Non-trainable params: 0\n","_________________________________________________________________\n"]}],"source":["model = tf.keras.Sequential([tf.keras.layers.Embedding(vocab_size + 1, embedding_
…
